code_gpa/graphsaint/pytorch_version/pytorch_models/gene_trait_saved_model_2022-09-21 16-27-04.pkl (torch, 457681 bytes, 47 tensors)

conv_layers.0.f_lin.0.weight f4 [128, 42]
00000000: 862b e93d 2cb7 1abd 87d3 2dbe c4a3 813d
00000010: 6672 25bd 6790 1cbe 3b20 3abe 2b3d 11be
00000020: ead9 96bd aef4 ab3d 3c9f 0d3e 58d0 0d3e
00000030: 957a ea3d 6514 57bd 9510 733c fd9b 92bd
00000040: cafe c93b 409e f4bd 33b8 723d 07b6 aa3d
00000050: a26c f83d f5e9 a8bc c58f 473e 4e83 23be
00000060: ea5c 13be 1556 b9bd 3186 193e aa8e a3bd
00000070: bd76 e5bc 83df 62bc 22b9 c13d d04c 27bc
00000080: 8a9e d1bd 37c9 24be c84a 983d 33c3 be3c
00000090: 1a94 90bd f112 5fbd 44d0 98bd f19f 0f3e
000000a0: 2162 573e 8748 e63d 93d6 90bd 0063 d33d
000000b0: d802 00bc 23f5 0c3c b2dd a2bd b318 59be
000000c0: 2554 f43d f956 f5bc 4df1 13bd 9f1e 513e
000000d0: caac 5c3d eb48 21be c017 94bb a235 233e
000000e0: f528 0abd 7ad4 3fbe c810 57be 25be cabc
000000f0: e1f2 2d3e f821 003d 6afe 2fbe 8a81 acbd
00000100: 93db 173e 3421 823d df13 023e 9c47 f13d
00000110: 4e05 e53c c21d 65bc df2a 6e3d 271f b83d
00000120: 0bd8 443e 155f 40be 72d9 2ebd bab3 35bd
00000130: fa1f 123e f8ef 24bd e035 76be 7f3f f0bc
00000140: 0a25 0f3e 0724 d23b fe0c 323e d857 26bd
00000150: 6504 0a3e ddae 233e ec44 fabd cb3c e8bc
00000160: e993 29be eeef dcbd a7c5 633d c3a9 e23d
00000170: ce15 e0bc 44c8 44bd 5a04 01be bef2 62bb
00000180: b918 d53d 335f 2c3e bf88 01be 538b 0b3e
00000190: 8dc3 803d 4a66 ff3c 034c 97bd e80a 8a3d
000001a0: 448d 06be 1836 67bc 42ff 383d 62be 28be
000001b0: 526b d2bd c103 98bd 2044 c23d fa38 d73d
000001c0: 60fb 9f3c 4afe 1b3e 8155 b33c 3396 3c3d
000001d0: 0c82 5c3e 98d9 c03d 09a6 06bd a17f 833c
000001e0: f016 ac3c 5289 13be a7a2 f73d a264 533e
000001f0: b0f2 b0bb a7cb d3bd 4783 273e 98b5 edbd
00000200: 47a7 6cbc 5c98 23be 1518 ee3d 9eaa 8f3c
00000210: cac5 593d 40f3 9dbd 85c2 1d3e bbc0 233e
00000220: bc79 15bd 3c58 183e 6c10 19be 6e00 b83d
00000230: f442 09be edfd a6bd 9b2f fc3d a3fb fcbd
00000240: 7d5a 2b3e f25a 943d 017a c4bd 8bb0 363e
00000250: 27b5 d43d 7ed2 ab3d 42b1 243d 8523 25be
00000260: 8e96 28be 4656 e1bc a2bc 4ebd bd53 36bd
00000270: 2358 23bd b99f 163e 19bc 6dbc 6018 03bd
00000280: b446 b63d ed96 32be 7c58 f4bb 6993 2a3e
00000290: f70d c4bd a2c2 573e ae3c 5bbe 71eb 023e
000002a0: 5710 2d3e 2c63 8ebc 1fe7 41be 4224 bfbc
000002b0: 5546 c5bc 4027 aebd 46d0 213d 5a56 c03c
000002c0: 359b 263e 85c2 8bbd 330a 69bd 8c03 213d
000002d0: a24b aebd 9ce0 8dbd 22f2 25be eb57 a4bd
000002e0: 5803 963d 2518 81bd 08b0 38be f09f b13b
000002f0: b8f7 313e 2114 23bc 5b74 11be 50dd 1b3e
00000300: 815c cfbd d483 83bd ebb5 1cbe fccf 2cbd
00000310: ea42 8ebd 364b ce3c 1e50 0fbc 3e65 613c
00000320: 5651 06bd 1008 20bc fb06 f1bd b450 e0bd
00000330: f18f e53d 84b9 703d 14c1 91bd 2df8 7ebc
00000340: ba0a e6bd ca1c f0bc 037d 4c3d 700d 123c
00000350: 1211 fe3c e477 08be 8219 0c3e ffcd 31bd
00000360: 9b01 6cbe 43bb aa3d e211 213e b4ff a33d
00000370: 402e 663d 1516 073e e22f 523e 64cf a03d
00000380: 94b1 133e 9e7c 29bc f496 dabd d234 31be
00000390: a80a 1c3d bd6d a1bc 668a 79bc 5d9a ccbd
000003a0: 3e77 0abe fca5 7fbd 7575 7cbc cbf0 72bc
000003b0: 4473 d5bb 19f7 903d 1890 063e 099b 7abd
000003c0: dc92 b73d 6ad9 133e 76cf 1fbe cb30 0f3e
000003d0: 7ac4 e3bb 4522 ce3c ba84 5b3e 38c5 56be
000003e0: 7ebd febc 8671 c8bd c650 50bb fb64 93bd
000003f0: 2ec1 503e 0958 11bc ca23 e8bb 0b9b 1c3d
0.113852546 -0.037772343 -0.16975223 0.06330064 -0.040392302 -0.1528946 -0.18176357 -0.1418349
-0.073657826 0.08396278 0.13830274 0.13849008 0.11449162 -0.052509684 0.014835496 -0.07158659
0.0061644064 -0.11944246 0.059257697 0.083355 0.12130095 -0.020619372 0.19488437 -0.15968058
-0.14390913 -0.09049622 0.14992596 -0.079861954 -0.02801072 -0.013847235 0.094591394 -0.010211185
-0.10235317 -0.16092382 0.074361384 0.023286438 -0.07059498 -0.054461423 -0.074615985 0.14025857
0.21033527 0.11244302 -0.07072177 0.10321617 -0.007813178 0.008603367 -0.07952441 -0.21200828
0.11930112 -0.029948698 -0.036118794 0.20421837 0.053875722 -0.15750472 -0.004519433 0.15938428
-0.033730466 -0.18733397 -0.21002495 -0.024748871 0.16987182 0.031282395 -0.17186895 -0.08423145
0.14829855 0.06353989 0.12702893 0.117812365 0.027956631 -0.013984146 0.058146354 0.08990317
0.19223039 -0.18786271 -0.04268784 -0.044360854 0.1427001 -0.040267915 -0.24043989 -0.029327152
0.13978973 0.006412986 0.17387769 -0.040611118 0.13478239 0.15984674 -0.12220177 -0.0283493
-0.1656033 -0.107879505 0.055608418 0.11067536 -0.027354147 -0.04804255 -0.12599316 -0.003462955
0.10405106 0.1683319 -0.1264982 0.13627367 0.06287298 0.031176705 -0.07387545 0.067403615
-0.13139826 -0.014112018 0.045165308 -0.16478875 -0.10274376 -0.07422591 0.0948565 0.10508914
0.019529045 0.15233722 0.021891357 0.04604168 0.21533984 0.09416503 -0.032873187 0.01605207
0.021007031 -0.14407852 0.1209157 0.20643857 -0.0054000244 -0.10341578 0.16358672 -0.11606902
-0.014444179 -0.15976089 0.11625687 0.017537411 0.053167142 -0.07712412 0.15406235 0.1599149
-0.036493048 0.14877409 -0.1494767 0.08984457 -0.13404447 -0.08153901 0.123137675 -0.123526834
0.16733737 0.07243909 -0.09593583 0.17840783 0.103861146 0.083897576 0.04020811 -0.16126831
-0.16463682 -0.027506959 -0.050472863 -0.044513453 -0.039878976 0.14709367 -0.014510178 -0.032005668
0.08900204 -0.17440386 -0.007456837 0.16657795 -0.09572976 0.2107034 -0.21409866 0.12785126
0.16900764 -0.017381273 -0.18935822 -0.023332719 -0.024081388 -0.0850358 0.039505266 0.023478676
0.16270144 -0.06824211 -0.056894492 0.039310023 -0.085105196 -0.069276065 -0.16205648 -0.080245815
0.073248565 -0.06303433 -0.180359 0.0054206774 0.17379653 -0.00995353 -0.14204542 0.15221143
-0.101250656 -0.064216286 -0.15303771 -0.042190537 -0.069463566 0.025182348 -0.008747129 0.013757048
-0.03279241 -0.009767547 -0.117689095 -0.10952893 0.11209095 0.05877067 -0.07116905 -0.015562099
-0.11232515 -0.029310603 0.049923908 0.008914337 0.031014 -0.13326985 0.13681605 -0.043409344
-0.23047487 0.083364986 0.15729478 0.08007756 0.05619645 0.13192017 0.20526078 0.078520566
0.1442321 -0.010344652 -0.10673323 -0.17305306 0.0380961 -0.019705648 -0.015230751 -0.0999038
-0.1352205 -0.062414154 -0.015408863 -0.014827917 -0.006513985 0.0707838 0.13140905 -0.06118301
0.08963558 0.14438406 -0.15606484 0.13983457 -0.006950912 0.025162825 0.2143735 -0.2097367
-0.031096216 -0.09787278 -0.0031786426 -0.07196995 0.20386192 -0.008871087 -0.0070843445 0.038233798

conv_layers.0.f_lin.1.weight f4 [128, 42]
00000000: b517 59bd 837c 963d 725b 973d 618a 9cba
00000010: be03 27be 23f4 ffbc 2f55 23be 879c 23be
00000020: 5222 16bb 6409 02be c6b1 2c3e ded2 3bbe
00000030: a77c 9dbd f923 28bd 3025 593c 73c3 8dbd
00000040: 9bbf 8b3c 8388 08bd 9145 0e3e 45c4 e1bd
00000050: da53 6abd d5f4 01bd 5581 903d 945a 2e3e
00000060: f4f7 0abe 2d95 b63d be28 d1ba 91b7 033d
00000070: 5813 cdbd 3a52 8c3d c47f 923d ad2b 42be
00000080: 0093 dbbd 1f36 b4bc 4abc 53bd 858f 2abe
00000090: 2c99 c63b faff f3bc 861f 81bd 14ec 19be
000000a0: 85d8 d23d 5e4c 833d 3d8f c1bd 942b f9bd
000000b0: 713f c53d de35 f33c c3ab bcbd 493f 02be
000000c0: 5a99 8ebd e81a 0a3e c99f 853c 4836 e8bc
000000d0: 9c00 263e 3975 d8bd 807f c43c 3c08 2ebe
000000e0: e8ae d03a a37c dabd 3b69 19be 4ba8 b0bd
000000f0: 764a cb3d 3e9a 8a3d a0bd f1bd b73a 423d
00000100: bafb 303e c4dd 94bd dde9 0abd fe20 23bd
00000110: 3624 373d 7640 21be c2e9 563d 8e3a 06be
00000120: 7c21 5bbd 617a cf3d 1b18 113d 7c9e 4bbd
00000130: 0517 393d 6196 58be 002f 0d3e dc1f c03d
00000140: 52bc 20be 1aea cd3d 4a04 09bc 92de 2cbc
00000150: 56f0 223e c5b9 45bd 70d8 b8bd 1892 2bbe
00000160: 3c22 5abd aab6 97bd 61cf 013e 3d6f a1bd
00000170: 8090 ae3c ec7d 613d 1728 343e f07e 403e
00000180: 4466 49bd ba07 cb3c 1192 613d 8bee 17be
00000190: 7155 fc3d c4e5 cd3d 96a7 543d 25a5 fcba
000001a0: 1058 823d 04b9 863c 0472 1fbe 0fe3 adbd
000001b0: 6222 c63c 0c90 14be c730 f63c aabe 2d3e
000001c0: be5c 033e c966 9e3d 11e0 9bbc a963 cb3d
000001d0: 22f1 04bd 0655 cebd 5c4d 0dbe 2e10 0dbe
000001e0: a7ae 64bc a700 82bd 5036 893d c0ba a4bd
000001f0: 333c 333e cc42 43be c95a 823c 310b 433d
00000200: b232 9d3d d216 7bbd 32c6 06bd ff69 39be
00000210: 705f 153e bc4a d4bd dc13 013e b8f9 e43d
00000220: 3ccf 8ebd e5a9 143e 68eb 83bc 326b c5bd
00000230: e88e 783c b436 2abe 5112 0d3c 43bf e9bd
00000240: cf3c 7b3d 3903 21be 9f7e 93bd 96d7 15be
00000250: fb98 073d 9301 04bd 92cd 3e3e 106c 173c
00000260: 830e 463e 8a84 e0bd 7bbc fe3d d801 e63d
00000270: 83cf 41be fcc3 013e 6a12 28be 6bd3 f13d
00000280: 4d16 1d3c c0e1 00be dea2 c73c 4203 02be
00000290: af07 b03d ecb8 e53d e566 f13d 57db 183d
000002a0: c7e9 353c 806f 56bd 5be1 4c3d 7685 95bd
000002b0: c411 51bd 1105 2dbe 69a5 403e d3be 32be
000002c0: 583a 0ebd 3891 aabc 9a32 cebd c6fd 51bd
000002d0: 7eba 1ebb 5a4b c6bd d8b3 37bd 9fc1 35be
000002e0: f04e d5bc 6337 553d 8ade 9dbd e082 05be
000002f0: 2286 253e c4e3 b93d c320 a13d f5e5 efbd
00000300: 268d e83d 14fd d53d 5a49 0f3e b0dd e8bc
00000310: eeca 113e 6b70 203e fbea 35be e5ef 47bd
00000320: d6d6 e13c bd1f 66bd 5d38 273d 2dda 1bbe
00000330: ca32 41bd c37d a2bd 4e06 3cbe cdb9 163e
00000340: 15af 13be 6bc2 3cbd 1902 543e 60cd d6bd
00000350: 3db5 01be de8d a43d ab5c ad3c 2bed 1f3e
00000360: 5a00 0c3e 82b7 05bd d8d0 e03d 12f6 003e
00000370: 9d34 f33d e9df 02be 842e bebd f822 c33d
00000380: e264 b8bd 546f 43bd 1792 8a3d 16ed 343e
00000390: ddb1 6d3d 234a 513d 4085 193e 44a0 983d
000003a0: 8dee 593d 927d adbd bc54 963d 97d6 0f3e
000003b0: 491e b3bd 5381 bc3b b36d c83d 7d78 de3d
000003c0: 6a21 873d cd22 5fbe 574a 173e 6377 673d
000003d0: 68a7 c2bd 6673 0a3e aebc aebb b3ed af3d
000003e0: ddb7 f5bd 51e4 a93d 8344 383d 00e6 a93d
000003f0: 29c3 16bd 300b 003b 38ad 9fbd d318 eb3d
-0.053001124 0.073479675 0.07390489 -0.0011943096 -0.16310021 -0.031244343 -0.15950464 -0.15977679
-0.002290864 -0.12698895 0.1686469 -0.18342158 -0.07689791 -0.04104993 0.013253495 -0.069220446
0.017059138 -0.033333313 0.13893725 -0.110237636 -0.057208873 -0.03172763 0.07055918 0.1702674
-0.13571149 0.08915172 -0.0015957577 0.032157484 -0.10013455 0.06851621 0.071532756 -0.18961973
-0.107213974 -0.021998463 -0.05169324 -0.16656311 0.00606074 -0.029785145 -0.06304841 -0.15031463
0.10295204 0.0641105 -0.09451149 -0.12166515 0.09631241 0.029688772 -0.092124484 -0.12719454
-0.06962843 0.13486826 0.016311543 -0.028346196 0.1621117 -0.105692334 0.023986578 -0.16995329
0.0015921267 -0.10668304 -0.14981548 -0.08625849 0.09926312 0.067677006 -0.11803746 0.047419276
0.17283526 -0.07268861 -0.033914436 -0.039826386 0.044712268 -0.15747246 0.052469023 -0.13108274
-0.05349873 0.10130764 0.03542338 -0.04971169 0.04518797 -0.21151115 0.1378746 0.09381077
-0.15696838 0.10054417 -0.008362839 -0.010551112 0.15911993 -0.048272867 -0.09025657 -0.16754949
-0.053255305 -0.07407887 0.12676765 -0.07882545 0.021309137 0.05505173 0.17593418 0.18798423
-0.049169794 0.024783958 0.05507094 -0.1483709 0.12320984 0.1005359 0.051917635 -0.0019275291
0.06364453 0.016445644 -0.15570837 -0.084905736 0.024186317 -0.14508075 0.030052556 0.16967264
0.12828347 0.077344485 -0.019027742 0.09931118 -0.032456525 -0.10074811 -0.13799042 -0.13775703
-0.013957656 -0.06347781 0.066998124 -0.08043432 0.17503433 -0.1906845 0.01591243 0.047618095
0.07675685 -0.06130106 -0.032903858 -0.1810684 0.14587188 -0.10365817 0.12605232 0.111804426
-0.069731206 0.14517935 -0.016103461 -0.096395865 0.01517079 -0.1662243 0.008610324 -0.114134334
0.06133729 -0.15723886 -0.072018854 -0.14633021 0.033104878 -0.032228064 0.18633106 0.009242073
0.19341473 -0.1096278 0.124382935 0.112308204 -0.18926816 0.12672418 -0.16413274 0.11807903
0.009587836 -0.12586117 0.024369653 -0.12696555 0.085952155 0.11216912 0.11787204 0.037318554
0.0111031 -0.05235243 0.050019603 -0.07300846 -0.051042333 -0.16896464 0.18813099 -0.17455606
-0.03472361 -0.020821199 -0.10068245 -0.051267408 -0.0024220045 -0.09682341 -0.044849247 -0.17749642
-0.026038617 0.052054774 -0.077084616 -0.13038206 0.16164449 0.09076646 0.07867577 -0.11713783
0.11355047 0.104486614 0.13992825 -0.028426021 0.14237568 0.15667884 -0.17765419 -0.048812766
0.027568262 -0.05618261 0.040825237 -0.15219946 -0.047167577 -0.079341434 -0.1836178 0.14719315
-0.14422257 -0.04608385 0.20703925 -0.10488391 -0.12666793 0.080348715 0.021162352 0.15617816
0.13672009 -0.03264571 0.10977334 0.12593868 0.118752696 -0.12780727 -0.09286216 0.09528154
-0.09003617 -0.047713593 0.06766146 0.17668566 0.05803095 0.051096093 0.14992237 0.07452443
0.053206015 -0.08471216 0.073403805 0.14046703 -0.08746011 0.0057527213 0.097865485 0.10862825
0.0659817 -0.21790619 0.14774452 0.05651034 -0.095045865 0.13520584 -0.005332551 0.085902594
-0.1199796 0.08295501 0.044987213 0.08295822 -0.036807213 0.0019537918 -0.07796711 0.11479344

conv_layers.0.params.0 f4 [128]
00000000: ffda 19bd 54cf 903c 5178 4cbc 3260 3ebd
00000010: 38a8 5fbd 8a13 6d3b df8d 06bd 7221 6f3d
00000020: 4e14 663b 202e 0abd a851 64bc 8d74 7fbc
00000030: f41e d93c 5d53 7f3c d1ff 923c c794 96bc
00000040: 1942 14bc 2426 9ebc 330b 26bd 025e f93a
00000050: 0fc8 533c c3d2 fabc f476 09bd 077d 98ba
00000060: 9114 653c ec20 5abd 0f69 9dbb d77b 53bd
00000070: 6301 623c 4fc4 1abd d680 743c e9b8 2ebd
00000080: fde1 bcbc d650 ff3c 8b3d 413d a222 ac3c
00000090: 7dde 1f3d cb2c 143c 7abd b93c 184e 883c
000000a0: 72f9 0bbd e998 e5bb c497 9ebb d9cb 29bd
000000b0: 00be 4abb 7ed9 42bd cdfa d23c b46a 59bc
000000c0: 8fec 8e3c 2ad5 12bd 2eb8 333c 3de9 da3c
000000d0: 463e c23c 3477 76b9 6b16 7dba 74ed 363b
000000e0: 2a38 a1bc e764 a0bc ac39 cdbc b74c 793d
000000f0: d004 1e3c 751c c53c a798 02bd 7ea5 d83b
00000100: c198 483c dc8d 0ebc 6b80 453b caf2 d13b
00000110: 9534 cfbc 6dc9 29bd e8e9 15bd 4e3a e8bc
00000120: ed92 02bd 71ae 4abd 60c6 7e3c 380b bd3b
00000130: 21dc 413d 80e4 13bd 28c1 7c3d e20e 2abb
00000140: 3c66 17bc c743 ccbc 0de4 1a3c 2297 08bd
00000150: 8ac5 853c 64ca 38bc 3516 c43c b110 2c3d
00000160: cbd3 683d 048f 443d defe d2bc 920e 133b
00000170: 752c bdbc 8b4d 5f3c a262 a03c 408a 133d
00000180: 15c2 65bb 951a 37bd f4ce 64bc 91d1 8fba
00000190: cad2 143b f413 223c 3c79 b1bb 861f e7bc
000001a0: 7f84 cd3b db86 143d c049 0dbc 7f2b 22bd
000001b0: 4dd4 e93c 1741 f63c 988a 7abc 59cf 3abc
000001c0: 83ad f4bc b34d e6bc 44d1 a83c d98f 76bc
000001d0: a1b5 d53b 69cf 27bc de30 95bc 142c ad3b
000001e0: dba9 debc 72cb 943b 7adf b43b 3624 e8bc
000001f0: 655f b63c 0b16 f33c 655e 80bc ed10 80bc
-0.037562367 0.017676987 -0.012479858 -0.046478458 -0.054603785 0.0036174976 -0.032850143 0.058381505
0.0035107317 -0.033735394 -0.013935484 -0.015591753 0.026504017 0.01558384 0.017944248 -0.01838149
-0.009048962 -0.019305296 -0.040538024 0.0019025209 0.012926116 -0.030618077 -0.03356071 -0.0011633941
0.013981954 -0.053254053 -0.0048037837 -0.051631775 0.013794276 -0.03778487 0.014923295 -0.042656813
-0.023056978 0.031166475 0.047177833 0.021012608 0.03903054 0.009043883 0.022673357 0.0166388
-0.034173436 -0.0070067537 -0.004839869 -0.04145417 -0.0030936003 -0.047570698 0.025754357 -0.013270069
0.017446784 -0.03584782 0.010969205 0.026722545 0.023711335 -0.00023504795 -0.00096545246 0.002791253
-0.019680101 -0.019579364 -0.025051914 0.060864177 0.009644702 0.024061421 -0.031883862 0.006611525
0.012243451 -0.008700814 0.0030136358 0.0064071165 -0.025293628 -0.04145186 -0.036600024 -0.028348114
-0.0318784 -0.049482767 0.015550226 0.0057691596 0.047329072 -0.036106586 0.061707646 -0.0025948812
-0.009240683 -0.024934663 0.009453786 -0.033347256 0.016329546 -0.011278722 0.02393637 0.042008106
0.056842607 0.047987953 -0.025756296 0.0022439105 -0.023092488 0.0136293275 0.019578282 0.036020517
-0.003505831 -0.044703085 -0.013965357 -0.001097249 0.0022708648 0.0098924525 -0.0054160636 -0.028213274
0.0062718983 0.03626142 -0.00862354 -0.039592262 0.028543616 0.030060334 -0.015291832 -0.011401975
-0.029867893 -0.028113222 0.020607598 -0.015048944 0.006521896 -0.0102423215 -0.018211778 0.0052847955
-0.027180603 0.004540854 0.0055198045 -0.02833758 0.022262285 0.029673597 -0.01567001 -0.01563307

conv_layers.0.params.1 f4 [128]
00000000: 7ab5 ae3b 00b1 0f3d b095 c6bc bac5 8dbb
00000010: 607e 01b7 bab2 debc 4570 bfbc 3f3b b2bc
00000020: df73 fb3c 1891 8dbc 264f 74bc 8113 203c
00000030: 08b2 96bc 6d83 01bd 5eda 393c f4fd 9bba
00000040: d849 84b9 90de f8bc 0441 67bd 043c 00bd
00000050: 967e efbc aff4 633b 374f 61ba 8005 493c
00000060: 072f 08bd 3dac 6a3b 87a5 983b b085 45ba
00000070: 7618 01ba e6b1 7939 233d 923b f379 663c
00000080: a291 563c 93a0 9cbc aeb9 63bd c460 ef3b
00000090: ca65 913c 1b1f 16bc 4643 84bc 63c5 743c
000000a0: 5c0a b73b 2716 88bc 3fda b63c 5403 173c
000000b0: c3ff 78bb 1787 1cbc 6348 26bc 63a4 fdbc
000000c0: 185f 493c 84b0 81bc aef7 20bd 2870 133c
000000d0: c818 af3c 4f20 8fbc 9dc9 a9bc 9008 17b8
000000e0: ff7c 0a3d cf73 be3b a3ae 21bc bcb6 4b3c
000000f0: cf35 123c 6aaa 7c3c b818 c93c cd15 5c3b
00000100: 0a5d bcbb 4854 56bb 808b dc3a 868c 263c
00000110: 225c 953b bc75 553d 7eb3 80bd 564d 9f3b
00000120: 1a59 21bc 1ff8 98bc 0070 3abd 9595 e43c
00000130: 1d6f 133c b2c9 b3bb dc94 d33c 34a4 743c
00000140: 37b8 1f3d 3eca b93c c301 2dbc c59a 383d
00000150: 178e 5a3c 313e 8dbc 2d19 e2bb f49c 3fbb
00000160: a3ce 033d 3b70 a7bc 2154 dc3c 7e27 9a3b
00000170: a62b 39bd 5312 f7bc f749 88bc f820 c63c
00000180: b3ed 0d3d 3bdd 8b3c d0eb c1bc c8b4 8fbc
00000190: 02e8 85bc 361a 3c38 2ccb 24bc 2a51 8fbb
000001a0: f2ac b5bb 1c3d dabc 25a4 6ebc 7039 563c
000001b0: bb26 f13c a6b5 1b3b 3785 13bd a77f b93b
000001c0: 8100 e9bb 402e cf3b c4b4 783c 3d2d 1e3c
000001d0: fb87 a33a 29cc b9bc ce54 febc 97b3 6a3b
000001e0: 2a70 b4bc 9e1a e33b 0848 0cbc f633 e638
000001f0: 8380 0ebc 92a5 b03b ad81 a9bc 86a9 9abc
0.0053316923 0.03508091 -0.024241298 -0.0043265494 -7.718423e-06 -0.027184833 -0.023368964 -0.021756766
0.0306949 -0.0172811 -0.014911449 0.009770275 -0.018395439 -0.031619478 0.011343567 -0.0011901245
-0.0002523202 -0.030379564 -0.056458488 -0.031307235 -0.029235166 0.0034783294 -0.0008594873 0.012269378
-0.033247974 0.0035808228 0.0046584043 -0.00075348746 -0.00049246044 0.00023812763 0.0044628545 0.014067161
0.013096245 -0.019119537 -0.055597 0.0073052365 0.017748732 -0.00916269 -0.01614536 0.014939639
0.0055859517 -0.016612126 0.022320865 0.009217102 -0.0037994243 -0.009553692 -0.010149094 -0.030962175
0.0122907385 -0.01583124 -0.039298706 0.008998908 0.021374121 -0.01747146 -0.02072602 -3.600918e-05
0.03381061 0.0058121453 -0.009868297 0.012433704 0.008923962 0.015421489 0.02454792 0.003358233
-0.005748396 -0.0032704044 0.0016826242 0.010165339 0.004558102 0.052114233 -0.062842354 0.004861514
-0.009847904 -0.018673 -0.045516968 0.027903358 0.008998659 -0.0054866904 0.025827818 0.014931727
0.03899404 0.022679444 -0.010559502 0.045069475 0.013339541 -0.01724157 -0.006899974 -0.0029237838
0.032179486 -0.020439258 0.026895585 0.004704415 -0.045207642 -0.030160105 -0.016636832 0.024185643
0.034650516 0.017073264 -0.023672014 -0.017542258 -0.016345982 4.4847104e-05 -0.010058206 -0.004373689
-0.0055442983 -0.026640467 -0.014565502 0.013075218 0.029437413 0.0023759394 -0.036015715 0.0056609693
-0.007110656 0.006322652 0.015179817 0.00965434 0.0012476438 -0.022680359 -0.031046297 0.003581261
-0.02202614 0.0069306633 -0.008562095 0.00010976933 -0.008697632 0.0053908313 -0.020691717 -0.018879663

conv_layers.0.params.2 f4 [128]
00000000: cc57 cbbc 00a6 c03b a192 1dbc 718d 79bc
00000010: 1468 4bbc bf25 8c3c facd 75bc f160 3b3d
00000020: aa46 c23b 9136 79bc 129c 9d3a 5a01 d6ba
00000030: 8792 78bc 5dea 9fba 9863 56bb 098c 12bc
00000040: 9842 2c3c a0a0 863c 224a 44bc 4cf7 343c
00000050: 7885 b9bb c732 d2bc 4134 bcbc 6f9c db3a
00000060: 5e8a ea3a 69d4 3dbc 4cd5 2cba 207e d5bc
00000070: a640 823b 22a4 f0bc 06ea 893a d1e9 e9bc
00000080: 80b4 a4bc 716e c03c e846 a93c 91f4 8e3c
00000090: 0671 693c 94b1 ffbb 9d8a c63b f9a0 9a3c
000000a0: c9b5 e6b8 6908 11bc b85b 90bc 282a e9bb
000000b0: 0211 013d b067 6bbd 818d 3f3d 07ce 3ebc
000000c0: ec14 823b 49f0 82bc 15f8 193c 0142 4f3c
000000d0: aac2 293b 22fd 2c3c 695b 39bb f2fc 883b
000000e0: c26b f73b 7d26 68bc bab9 23bc 0f5b 853c
000000f0: 0b6f fe3b e0ca 3f3c fae1 48bb 8d96 8b3c
00000100: 47d3 153c c0a2 7fbc 4030 94ba 5fb4 223c
00000110: 358c 37bc b91d a5bc 8a38 a83a 3eb5 09bd
00000120: 8a0d a7ba 0c3d 92bb 8ade a5ba 924e 4d3c
00000130: bc39 e63c b039 81bc 66cf 5d3c 6e27 263b
00000140: 3efc 533c 2cff e7bb f105 bc3c 26ea 75bc
00000150: 412a 24ba 9d2c 91bb 91ac 0e3b 9939 0c3d
00000160: 1c10 673d 5a4c bf3c 339d 1dbd eb08 81bb
00000170: 943b 30bc e9b8 c03c 1392 233c 14ef 2f3d
00000180: 3c88 683b 5a6b a8bc 902f d0ba fdf8 a93b
00000190: 4a42 de3c 3541 51bc 9c65 b7bb fa63 66ba
000001a0: 1415 d4bb ef02 ad3b 5458 3ebc b994 80bb
000001b0: db3d 9dbb b7a9 d93a aa18 6dbc 177c 81bb
000001c0: 2f3e 2fbd 4a48 afb9 928f ac3c dc74 04bc
000001d0: 9159 693c 4e9a 25bb 83ca 6cbc 39f0 20bc
000001e0: 7935 d4bc 915d 3d3c e345 d93c 8966 aab9
000001f0: b4a2 983c 908f 1f3d f51a 31bd 4349 9bbc
-0.024822138 0.0058791637 -0.009617479 -0.015231476 -0.012414951 0.017107842 -0.015002722 0.045746747
0.005928834 -0.015210764 0.0012024662 -0.0016327307 -0.015171654 -0.0012200583 -0.003271317 -0.00894452
0.010513924 0.016434014 -0.011980565 0.011045288 -0.0056616627 -0.025658978 -0.022974135 0.0016754995
0.001789402 -0.011586287 -0.0006593063 -0.026061118 0.003974992 -0.02937514 0.0010522015 -0.028553875
-0.0201056 0.023490163 0.020663694 0.017450603 0.014248138 -0.0078031514 0.0060590045 0.018875586
-0.00011001115 -0.008852103 -0.01762186 -0.007115621 0.03151036 -0.05747193 0.046765808 -0.0116458
0.0039697792 -0.015983718 0.009397526 0.012650014 0.0025903382 0.010558398 -0.0028283244 0.004180544
0.0075506875 -0.014169333 -0.009993011 0.016278772 0.007764702 0.011706084 -0.003065227 0.017039562
0.009144611 -0.0156027675 -0.0011305884 0.009930699 -0.011202862 -0.020155774 0.0012834233 -0.03362011
-0.0012745124 -0.0044628438 -0.0012654823 0.01253094 0.028103702 -0.015774578 0.013538217 0.0025353092
0.012938557 -0.0070799794 0.022952052 -0.015009439 -0.00062624 -0.004430367 0.0021770338 0.034234617
0.056411847 0.023351837 -0.038479995 -0.0039378307 -0.010756392 0.023525672 0.009983557 0.042952612
0.0035481593 -0.020559002 -0.0015883315 0.0051871524 0.027131218 -0.012771894 -0.0055968296 -0.00087887014
-0.0064722393 0.0052798907 -0.011617739 -0.003923979 -0.0047986335 0.0016606365 -0.014471212 -0.0039515602
-0.042783912 -0.0003343246 0.021064553 -0.008084502 0.014242546 -0.0025268975 -0.014452579 -0.009822899
-0.025904404 0.0115579525 0.026522582 -0.0003250132 0.01863227 0.03895527 -0.0432386 -0.018955832

conv_layers.0.params.3 f4 [128]
00000000: 96aa 7f3c a711 993b 0c02 acbc ae7b a03c
00000010: 3067 1d3c a520 84bc 4a8f 1f39 0889 debb
00000020: b999 c83b 4166 3abc 86a0 363c 2191 823c
00000030: e7d3 873c 1c33 19bd ab06 a03c 3345 92bc
00000040: 715d 04bc 1e50 173c 3181 4abc 1608 90bc
00000050: a43f da38 af8e a2bb d460 053c dc1b aa3c
00000060: 517c 8ebc f87a be3c d64b dfbc 17be 6a3c
00000070: 84c7 6dbc 97ba 8ebc 5fed b5b9 c5be 2f3c
00000080: 3d49 8a3b b4bd 1bbc 0c92 0dbd f42a 463c
00000090: c003 d2bc 931b 133c bed0 593b a760 0e3d
000000a0: a5f8 b23b c5ae debb e4c7 71ba 4652 143c
000000b0: 88e6 963b b77e c4bc d119 0cbd 306b 09bd
000000c0: 487c d53c 95aa dbbc 493f e83b 6f41 abbb
000000d0: f314 e13c aee9 163c de5b ddbc 3404 3c3c
000000e0: 1535 0d3c dfe2 b63c 18a9 6abb ae21 21bc
000000f0: 0678 db3c ae32 aa3c 62f8 a73a 29e8 d3bb
00000100: 3a91 83bc 3308 0ebc 95d5 88bb d4c8 7a3c
00000110: 4324 2ebc 4241 0b3c e297 03bd a702 b83c
00000120: e7aa c9bc 72f6 c4bc 8485 b9bc 30eb d8bb
00000130: 2ee2 863c c001 783c bdd4 0d3d c5d0 7a3b
00000140: 3eab 8c3c fe4a 6b3b 411a 423b d72f e73c
00000150: 1269 9d3c 002a ecbc 673f a7bc dd7b 8d3c
00000160: 2a22 363d 36de 69bc 797a 063d d6e7 633b
00000170: 1881 33bc 34d3 fbbb aa46 c2bc 3fa8 eb3b
00000180: d114 b13b 0b99 af3c b15c 3f3c 5d70 3fbc
00000190: 5d3d ba3b 98a9 75ba eafc 9dbb 8405 fdbc
000001a0: 40d7 26b9 84ca 4a3b 07d8 a83c 6a2a 5c3b
000001b0: a1c7 983c 159c cfbb f584 14bc 2412 de3b
000001c0: ef68 9a3b f9a2 893c 15a1 b63b a8f1 983c
000001d0: 4654 bfbb 4af0 2d3b 3b3c f0bb 97fe 3f3c
000001e0: d428 abbc f2c7 493c a82f 91bc 85f2 033d
000001f0: f66b 66bb 7ef8 fb3b f50f 7abc bbe0 bc3a
0.015604636 0.004671294 -0.02099707 0.019590225 0.009607121 -0.016128847 0.00015216801 -0.0067912377
0.006121841 -0.011376918 0.01114667 0.015938343 0.016580535 -0.037402257 0.01953443 -0.017855262
-0.008078919 0.00923541 -0.012359903 -0.01758198 0.00010406904 -0.004960857 0.008140761 0.020765238
-0.017393263 0.023251995 -0.027257841 0.0143275475 -0.0145129 -0.017422957 -0.00034699866 0.010726635
0.0042201565 -0.009505678 -0.03456311 0.012095202 -0.025636554 0.008978742 0.0033235992 0.034760144
0.0054617696 -0.0067957365 -0.00092232064 0.009052819 0.004605118 -0.023986204 -0.034204308 -0.033549488
0.026060238 -0.026814738 0.0070876223 -0.005226306 0.02747581 0.009210987 -0.027021345 0.0114756115
0.008618613 0.022324977 -0.0035806354 -0.00983469 0.02679063 0.02077612 0.0012815113 -0.0064668846
-0.01606046 -0.008668947 -0.0041758516 0.01530667 -0.010628763 0.008499445 -0.03212727 0.022462202
-0.024617625 -0.024043296 -0.022646673 -0.0066198334 0.016465273 0.015137136 0.03462671 0.003827141
0.017171498 0.0035902853 0.00296177 0.028221054 0.01921514 -0.02882862 -0.020415975 0.017270977
0.044466175 -0.014274171 0.032831643 0.0034775636 -0.010956071 -0.0076850895 -0.023715336 0.0071916874
0.005404093 0.021435281 0.011679814 -0.011684504 0.0056835846 -0.000937128 -0.0048214095 -0.03088642
-0.0001591118 0.0030943463 0.020610822 0.0033594617 0.018649878 -0.006335745 -0.009064903 0.006777065
0.004712216 0.016801344 0.0055734017 0.018669918 -0.0058389036 0.0026540929 -0.007331399 0.011718414
-0.020893492 0.012315737 -0.01772292 0.032213707 -0.0035159565 0.0076895347 -0.0152625935 0.0014410237

conv_layers.0.params.4 f4 [128]
00000000: af9d 803f 281b 803f 1814 823f a859 843f
00000010: 2648 7c3f effc 813f 443e 813f d392 803f
00000020: 4d59 743f b406 753f 25c3 7f3f 9067 813f
00000030: b656 7e3f e62d 803f 563d 803f 82df 7d3f
00000040: 0aa2 793f 278c 7a3f 6ce2 823f d884 823f
00000050: a00f 833f e933 843f 1cdf 753f d09b 763f
00000060: 768d 7d3f ebbc 7c3f 7520 803f 77af 783f
00000070: ef29 833f 2225 833f b905 813f 1dae 7c3f
00000080: c1fe 803f 04f9 7e3f a55d 843f e562 803f
00000090: ddcd 823f 6644 843f 349e 7e3f 6592 7d3f
000000a0: a119 773f 57a2 823f 01f9 873f 6f2b 7d3f
000000b0: 9e04 783f 30c4 823f 2bb7 813f 2253 7e3f
000000c0: 5164 7d3f 9f0b 813f 0f77 773f 7608 813f
000000d0: dc31 813f 13d2 7e3f bcd9 803f 9c75 7c3f
000000e0: fe79 793f 01b6 7c3f 528f 833f 7fdb 863f
000000f0: bdb2 813f 4efb 813f 51e3 823f b89b 7b3f
00000100: d19e 793f c874 7f3f bb92 7b3f 4963 813f
00000110: bd36 7c3f 02b9 7f3f bb6a 7b3f cc2b 823f
00000120: 199c 7a3f 9375 7a3f 8b57 843f acb4 7f3f
00000130: 0aa9 813f 1bb1 7c3f fa14 7f3f c4db 7d3f
00000140: 5637 783f 5a39 733f f173 733f bb0b 7a3f
00000150: f7b3 813f 9165 783f ae7d 7b3f 882e 7e3f
00000160: efd6 833f c4ea 833f 3463 7f3f 0c48 823f
00000170: 9fa8 813f 7971 7d3f 077c 7e3f 570e 7f3f
00000180: 2eda 7a3f d7df 7e3f 89c3 793f 05af 813f
00000190: b602 7f3f 8c72 803f 7d49 7f3f 7a63 803f
000001a0: 1abb 7b3f c075 823f 2f32 7d3f 58f1 7f3f
000001b0: ccef 7f3f f0e4 803f 8230 833f 9b09 7b3f
000001c0: adef 853f 1171 7a3f de07 823f 3bd9 793f
000001d0: 61f8 7a3f d939 7b3f 4319 7e3f 9484 843f
000001e0: 4663 813f 419e 803f 193c 7b3f f81c 7b3f
000001f0: 6ce1 783f 7a1c 813f 7cf6 783f ee8d 803f
1.0048121 1.0008287 1.0162382 1.0339861 0.9854759 1.0155314 1.0097127 1.0044807
0.9544876 0.95713353 0.9990714 1.010973 0.9935106 1.0014007 1.0018718 0.9916917
0.97512877 0.97870106 1.0225348 1.0196791 1.0239143 1.0328342 0.9604356 0.963315
0.9904398 0.98725766 1.0009905 0.9714274 1.0247172 1.0245707 1.0079871 0.98703176
1.0077745 0.9959872 1.0341078 1.003018 1.0219074 1.0333374 0.9946015 0.99051505
0.9652348 1.0205792 1.0622865 0.988944 0.96882045 1.0216122 1.0134023 0.993456
0.98981196 1.0081671 0.96666044 1.0080707 1.0093341 0.995393 1.0066447 0.9861696
0.9745177 0.98715216 1.0278113 1.0535735 1.0132672 1.0154817 1.0225621 0.9828448
0.9750796 0.9978757 0.9827077 1.0108424 0.98521024 0.99891675 0.9820973 1.0169616
0.97894436 0.97835654 1.0339216 0.9988506 1.0129712 0.9870774 0.9964138 0.9916346
0.96959436 0.95009387 0.9509879 0.9767415 1.0133046 0.9702998 0.98238647 0.9928975
1.0299968 1.030602 0.99760747 1.0178237 1.0129584 0.9900127 0.99408 0.99631256
0.97989166 0.995603 0.9756399 1.0131537 0.9961351 1.0034957 0.9972151 1.0030358
0.9833237 1.0192184 0.989047 0.99977636 0.99975276 1.0069866 1.0249178 0.9806153
1.0463768 0.97828776 1.0158651 0.9759709 0.98035246 0.98135144 0.99257296 1.035296
1.0108421 1.0048295 0.98138577 0.9809108 0.97218966 1.0086815 0.97251105 1.0043314

conv_layers.0.params.5 f4 [128]
00000000: e735 7e3f 6d0a 813f 4e82 823f 3b8c 7e3f
00000010: 0e6b 7e3f 1ee6 813f e5ba 7e3f 9223 7b3f
00000020: 05b5 843f c792 823f d0eb 833f afc5 803f
00000030: c5ed 783f d1f3 733f 2ef8 773f 6c32 743f
00000040: 2744 783f 820e 833f 4dca 823f 74fc 803f
00000050: 7a5e 823f 4b95 803f 3c39 823f 4f9a 7f3f
00000060: 9e10 813f f5d6 813f 789e 813f 93d6 803f
00000070: a435 843f ab0a 813f b574 843f 7ca6 803f
00000080: 3b58 7f3f 2ed7 7b3f 64f8 7a3f 1304 803f
00000090: 51fb 803f 3ed6 793f f1bd 7f3f 9087 7e3f
000000a0: b834 793f 8106 733f 9896 833f f29f 7b3f
000000b0: 7610 803f 713b 7c3f 6f62 813f 3f26 803f
000000c0: 574b 7b3f 8526 843f b6b8 773f 054e 813f
000000d0: 5053 803f af39 7c3f 2c87 7c3f cdbd 783f
000000e0: 4bb9 833f 3d29 793f 75eb 7f3f 203c 773f
000000f0: aa7d 7a3f 6f19 7f3f df0e 833f d155 783f
00000100: f0ef 7d3f b85c 823f 77d7 7c3f a5c9 823f
00000110: 6217 833f 8419 843f 4b30 833f 7cd0 783f
00000120: 8b9a 803f f947 803f fc9c 803f e3ce 803f
00000130: b5b3 723f 8abe 773f 56f7 7f3f 550d 803f
00000140: 6f3e 803f e44b 833f bf79 7f3f 1227 803f
00000150: 7789 803f 8d89 813f d54c 7c3f cdd5 7f3f
00000160: 61d2 7d3f 682c 793f e1b5 823f 9b08 7e3f
00000170: 2f25 803f 85a6 7b3f 1868 843f 265a 793f
00000180: f467 853f edd3 803f 7fd4 783f 4273 803f
00000190: ac42 7b3f 7e71 7e3f 3e91 823f 4479 803f
000001a0: f116 803f 0b6d 813f a249 753f 9d6e 833f
000001b0: 0b6f 853f fd2e 823f 199f 7d3f 7ba0 7a3f
000001c0: 54e6 803f ae62 7f3f 797c 823f 315a 753f
000001d0: 14e0 7f3f 1c28 7b3f 9b5a 823f 13a5 723f
000001e0: d590 7f3f 3611 813f 9e04 823f aaab 7b3f
000001f0: 61d4 7b3f d5b9 823f 1c0c 813f bf14 833f
0.99301 1.0081307 1.0196016 0.99432725 0.993821 1.0148351 0.9950393 0.9810115
1.0367743 1.0201043 1.0306339 1.0060328 0.9723781 0.9529391 0.9686307 0.9538944
0.9697899 1.0238802 1.0217987 1.0077043 1.0185082 1.0045561 1.0173717 0.9984483
1.0083196 1.0143725 1.0126486 1.0065483 1.032887 1.0081381 1.0348116 1.0050807
0.99744004 0.98375213 0.98035264 1.0001243 1.0076696 0.9759253 0.998992 0.994256
0.9734607 0.949318 1.0280333 0.9829093 1.0005023 0.985282 1.0108165 1.0011672
0.98161834 1.0324255 0.9676622 1.0101935 1.0025425 0.9852552 0.98643756 0.97164613
1.0290922 0.9732855 0.99968654 0.9657612 0.97848 0.99648184 1.0238913 0.97005945
0.9919424 1.0184546 0.98766273 1.0217787 1.0241511 1.0320287 1.0249113 0.9719312
1.0047163 1.0021964 1.0047908 1.0063137 0.9480546 0.96775115 0.9998678 1.0004069
1.0019053 1.0257535 0.99795145 1.0011923 1.0041951 1.0120102 0.98554736 0.9993561
0.9914914 0.97333384 1.0211755 0.9923188 1.0011348 0.98300964 1.0344267 0.9740318
1.0422349 1.0064675 0.97199243 1.0035174 0.9814861 0.99391925 1.0200574 1.0037007
1.0007001 1.0111402 0.9581548 1.0268131 1.0424513 1.017059 0.9907089 0.97901124
1.007029 0.9975995 1.0194236 0.95840746 0.9995129 0.9810808 1.01839 0.94783133
0.9983037 1.0083377 1.0157659 0.98308814 0.9837094 1.0212961 1.008182 1.0240706

conv_layers.0.f_bias.0 f4 [128]
00000000: ffda 19bd 54cf 903c 5178 4cbc 3260 3ebd
00000010: 38a8 5fbd 8a13 6d3b df8d 06bd 7221 6f3d
00000020: 4e14 663b 202e 0abd a851 64bc 8d74 7fbc
00000030: f41e d93c 5d53 7f3c d1ff 923c c794 96bc
00000040: 1942 14bc 2426 9ebc 330b 26bd 025e f93a
00000050: 0fc8 533c c3d2 fabc f476 09bd 077d 98ba
00000060: 9114 653c ec20 5abd 0f69 9dbb d77b 53bd
00000070: 6301 623c 4fc4 1abd d680 743c e9b8 2ebd
00000080: fde1 bcbc d650 ff3c 8b3d 413d a222 ac3c
00000090: 7dde 1f3d cb2c 143c 7abd b93c 184e 883c
000000a0: 72f9 0bbd e998 e5bb c497 9ebb d9cb 29bd
000000b0: 00be 4abb 7ed9 42bd cdfa d23c b46a 59bc
000000c0: 8fec 8e3c 2ad5 12bd 2eb8 333c 3de9 da3c
000000d0: 463e c23c 3477 76b9 6b16 7dba 74ed 363b
000000e0: 2a38 a1bc e764 a0bc ac39 cdbc b74c 793d
000000f0: d004 1e3c 751c c53c a798 02bd 7ea5 d83b
00000100: c198 483c dc8d 0ebc 6b80 453b caf2 d13b
00000110: 9534 cfbc 6dc9 29bd e8e9 15bd 4e3a e8bc
00000120: ed92 02bd 71ae 4abd 60c6 7e3c 380b bd3b
00000130: 21dc 413d 80e4 13bd 28c1 7c3d e20e 2abb
00000140: 3c66 17bc c743 ccbc 0de4 1a3c 2297 08bd
00000150: 8ac5 853c 64ca 38bc 3516 c43c b110 2c3d
00000160: cbd3 683d 048f 443d defe d2bc 920e 133b
00000170: 752c bdbc 8b4d 5f3c a262 a03c 408a 133d
00000180: 15c2 65bb 951a 37bd f4ce 64bc 91d1 8fba
00000190: cad2 143b f413 223c 3c79 b1bb 861f e7bc
000001a0: 7f84 cd3b db86 143d c049 0dbc 7f2b 22bd
000001b0: 4dd4 e93c 1741 f63c 988a 7abc 59cf 3abc
000001c0: 83ad f4bc b34d e6bc 44d1 a83c d98f 76bc
000001d0: a1b5 d53b 69cf 27bc de30 95bc 142c ad3b
000001e0: dba9 debc 72cb 943b 7adf b43b 3624 e8bc
000001f0: 655f b63c 0b16 f33c 655e 80bc ed10 80bc
-0.037562367 0.017676987 -0.012479858 -0.046478458 -0.054603785 0.0036174976 -0.032850143 0.058381505
0.0035107317 -0.033735394 -0.013935484 -0.015591753 0.026504017 0.01558384 0.017944248 -0.01838149
-0.009048962 -0.019305296 -0.040538024 0.0019025209 0.012926116 -0.030618077 -0.03356071 -0.0011633941
0.013981954 -0.053254053 -0.0048037837 -0.051631775 0.013794276 -0.03778487 0.014923295 -0.042656813
-0.023056978 0.031166475 0.047177833 0.021012608 0.03903054 0.009043883 0.022673357 0.0166388
-0.034173436 -0.0070067537 -0.004839869 -0.04145417 -0.0030936003 -0.047570698 0.025754357 -0.013270069
0.017446784 -0.03584782 0.010969205 0.026722545 0.023711335 -0.00023504795 -0.00096545246 0.002791253
-0.019680101 -0.019579364 -0.025051914 0.060864177 0.009644702 0.024061421 -0.031883862 0.006611525
0.012243451 -0.008700814 0.0030136358 0.0064071165 -0.025293628 -0.04145186 -0.036600024 -0.028348114
-0.0318784 -0.049482767 0.015550226 0.0057691596 0.047329072 -0.036106586 0.061707646 -0.0025948812
-0.009240683 -0.024934663 0.009453786 -0.033347256 0.016329546 -0.011278722 0.02393637 0.042008106
0.056842607 0.047987953 -0.025756296 0.0022439105 -0.023092488 0.0136293275 0.019578282 0.036020517
-0.003505831 -0.044703085 -0.013965357 -0.001097249 0.0022708648 0.0098924525 -0.0054160636 -0.028213274
0.0062718983 0.03626142 -0.00862354 -0.039592262 0.028543616 0.030060334 -0.015291832 -0.011401975
-0.029867893 -0.028113222 0.020607598 -0.015048944 0.006521896 -0.0102423215 -0.018211778 0.0052847955
-0.027180603 0.004540854 0.0055198045 -0.02833758 0.022262285 0.029673597 -0.01567001 -0.01563307

conv_layers.0.f_bias.1 f4 [128]
00000000: 7ab5 ae3b 00b1 0f3d b095 c6bc bac5 8dbb
00000010: 607e 01b7 bab2 debc 4570 bfbc 3f3b b2bc
00000020: df73 fb3c 1891 8dbc 264f 74bc 8113 203c
00000030: 08b2 96bc 6d83 01bd 5eda 393c f4fd 9bba
00000040: d849 84b9 90de f8bc 0441 67bd 043c 00bd
00000050: 967e efbc aff4 633b 374f 61ba 8005 493c
00000060: 072f 08bd 3dac 6a3b 87a5 983b b085 45ba
00000070: 7618 01ba e6b1 7939 233d 923b f379 663c
00000080: a291 563c 93a0 9cbc aeb9 63bd c460 ef3b
00000090: ca65 913c 1b1f 16bc 4643 84bc 63c5 743c
000000a0: 5c0a b73b 2716 88bc 3fda b63c 5403 173c
000000b0: c3ff 78bb 1787 1cbc 6348 26bc 63a4 fdbc
000000c0: 185f 493c 84b0 81bc aef7 20bd 2870 133c
000000d0: c818 af3c 4f20 8fbc 9dc9 a9bc 9008 17b8
000000e0: ff7c 0a3d cf73 be3b a3ae 21bc bcb6 4b3c
000000f0: cf35 123c 6aaa 7c3c b818 c93c cd15 5c3b
00000100: 0a5d bcbb 4854 56bb 808b dc3a 868c 263c
00000110: 225c 953b bc75 553d 7eb3 80bd 564d 9f3b
00000120: 1a59 21bc 1ff8 98bc 0070 3abd 9595 e43c
00000130: 1d6f 133c b2c9 b3bb dc94 d33c 34a4 743c
00000140: 37b8 1f3d 3eca b93c c301 2dbc c59a 383d
00000150: 178e 5a3c 313e 8dbc 2d19 e2bb f49c 3fbb
00000160: a3ce 033d 3b70 a7bc 2154 dc3c 7e27 9a3b
00000170: a62b 39bd 5312 f7bc f749 88bc f820 c63c
00000180: b3ed 0d3d 3bdd 8b3c d0eb c1bc c8b4 8fbc
00000190: 02e8 85bc 361a 3c38 2ccb 24bc 2a51 8fbb
000001a0: f2ac b5bb 1c3d dabc 25a4 6ebc 7039 563c
000001b0: bb26 f13c a6b5 1b3b 3785 13bd a77f b93b
000001c0: 8100 e9bb 402e cf3b c4b4 783c 3d2d 1e3c
000001d0: fb87 a33a 29cc b9bc ce54 febc 97b3 6a3b
000001e0: 2a70 b4bc 9e1a e33b 0848 0cbc f633 e638
000001f0: 8380 0ebc 92a5 b03b ad81 a9bc 86a9 9abc
0.0053316923 0.03508091 -0.024241298 -0.0043265494 -7.718423e-06 -0.027184833 -0.023368964 -0.021756766
0.0306949 -0.0172811 -0.014911449 0.009770275 -0.018395439 -0.031619478 0.011343567 -0.0011901245
-0.0002523202 -0.030379564 -0.056458488 -0.031307235 -0.029235166 0.0034783294 -0.0008594873 0.012269378
-0.033247974 0.0035808228 0.0046584043 -0.00075348746 -0.00049246044 0.00023812763 0.0044628545 0.014067161
0.013096245 -0.019119537 -0.055597 0.0073052365 0.017748732 -0.00916269 -0.01614536 0.014939639
0.0055859517 -0.016612126 0.022320865 0.009217102 -0.0037994243 -0.009553692 -0.010149094 -0.030962175
0.0122907385 -0.01583124 -0.039298706 0.008998908 0.021374121 -0.01747146 -0.02072602 -3.600918e-05
0.03381061 0.0058121453 -0.009868297 0.012433704 0.008923962 0.015421489 0.02454792 0.003358233
-0.005748396 -0.0032704044 0.0016826242 0.010165339 0.004558102 0.052114233 -0.062842354 0.004861514
-0.009847904 -0.018673 -0.045516968 0.027903358 0.008998659 -0.0054866904 0.025827818 0.014931727
0.03899404 0.022679444 -0.010559502 0.045069475 0.013339541 -0.01724157 -0.006899974 -0.0029237838
0.032179486 -0.020439258 0.026895585 0.004704415 -0.045207642 -0.030160105 -0.016636832 0.024185643
0.034650516 0.017073264 -0.023672014 -0.017542258 -0.016345982 4.4847104e-05 -0.010058206 -0.004373689
-0.0055442983 -0.026640467 -0.014565502 0.013075218 0.029437413 0.0023759394 -0.036015715 0.0056609693
-0.007110656 0.006322652 0.015179817 0.00965434 0.0012476438 -0.022680359 -0.031046297 0.003581261
-0.02202614 0.0069306633 -0.008562095 0.00010976933 -0.008697632 0.0053908313 -0.020691717 -0.018879663

conv_layers.0.offset.0 f4 [128]
00000000: cc57 cbbc 00a6 c03b a192 1dbc 718d 79bc
00000010: 1468 4bbc bf25 8c3c facd 75bc f160 3b3d
00000020: aa46 c23b 9136 79bc 129c 9d3a 5a01 d6ba
00000030: 8792 78bc 5dea 9fba 9863 56bb 098c 12bc
00000040: 9842 2c3c a0a0 863c 224a 44bc 4cf7 343c
00000050: 7885 b9bb c732 d2bc 4134 bcbc 6f9c db3a
00000060: 5e8a ea3a 69d4 3dbc 4cd5 2cba 207e d5bc
00000070: a640 823b 22a4 f0bc 06ea 893a d1e9 e9bc
00000080: 80b4 a4bc 716e c03c e846 a93c 91f4 8e3c
00000090: 0671 693c 94b1 ffbb 9d8a c63b f9a0 9a3c
000000a0: c9b5 e6b8 6908 11bc b85b 90bc 282a e9bb
000000b0: 0211 013d b067 6bbd 818d 3f3d 07ce 3ebc
000000c0: ec14 823b 49f0 82bc 15f8 193c 0142 4f3c
000000d0: aac2 293b 22fd 2c3c 695b 39bb f2fc 883b
000000e0: c26b f73b 7d26 68bc bab9 23bc 0f5b 853c
000000f0: 0b6f fe3b e0ca 3f3c fae1 48bb 8d96 8b3c
00000100: 47d3 153c c0a2 7fbc 4030 94ba 5fb4 223c
00000110: 358c 37bc b91d a5bc 8a38 a83a 3eb5 09bd
00000120: 8a0d a7ba 0c3d 92bb 8ade a5ba 924e 4d3c
00000130: bc39 e63c b039 81bc 66cf 5d3c 6e27 263b
00000140: 3efc 533c 2cff e7bb f105 bc3c 26ea 75bc
00000150: 412a 24ba 9d2c 91bb 91ac 0e3b 9939 0c3d
00000160: 1c10 673d 5a4c bf3c 339d 1dbd eb08 81bb
00000170: 943b 30bc e9b8 c03c 1392 233c 14ef 2f3d
00000180: 3c88 683b 5a6b a8bc 902f d0ba fdf8 a93b
00000190: 4a42 de3c 3541 51bc 9c65 b7bb fa63 66ba
000001a0: 1415 d4bb ef02 ad3b 5458 3ebc b994 80bb
000001b0: db3d 9dbb b7a9 d93a aa18 6dbc 177c 81bb
000001c0: 2f3e 2fbd 4a48 afb9 928f ac3c dc74 04bc
000001d0: 9159 693c 4e9a 25bb 83ca 6cbc 39f0 20bc
000001e0: 7935 d4bc 915d 3d3c e345 d93c 8966 aab9
000001f0: b4a2 983c 908f 1f3d f51a 31bd 4349 9bbc
-0.024822138 0.0058791637 -0.009617479 -0.015231476 -0.012414951 0.017107842 -0.015002722 0.045746747
0.005928834 -0.015210764 0.0012024662 -0.0016327307 -0.015171654 -0.0012200583 -0.003271317 -0.00894452
0.010513924 0.016434014 -0.011980565 0.011045288 -0.0056616627 -0.025658978 -0.022974135 0.0016754995
0.001789402 -0.011586287 -0.0006593063 -0.026061118 0.003974992 -0.02937514 0.0010522015 -0.028553875
-0.0201056 0.023490163 0.020663694 0.017450603 0.014248138 -0.0078031514 0.0060590045 0.018875586
-0.00011001115 -0.008852103 -0.01762186 -0.007115621 0.03151036 -0.05747193 0.046765808 -0.0116458
0.0039697792 -0.015983718 0.009397526 0.012650014 0.0025903382 0.010558398 -0.0028283244 0.004180544
0.0075506875 -0.014169333 -0.009993011 0.016278772 0.007764702 0.011706084 -0.003065227 0.017039562
0.009144611 -0.0156027675 -0.0011305884 0.009930699 -0.011202862 -0.020155774 0.0012834233 -0.03362011
-0.0012745124 -0.0044628438 -0.0012654823 0.01253094 0.028103702 -0.015774578 0.013538217 0.0025353092
0.012938557 -0.0070799794 0.022952052 -0.015009439 -0.00062624 -0.004430367 0.0021770338 0.034234617
0.056411847 0.023351837 -0.038479995 -0.0039378307 -0.010756392 0.023525672 0.009983557 0.042952612
0.0035481593 -0.020559002 -0.0015883315 0.0051871524 0.027131218 -0.012771894 -0.0055968296 -0.00087887014
-0.0064722393 0.0052798907 -0.011617739 -0.003923979 -0.0047986335 0.0016606365 -0.014471212 -0.0039515602
-0.042783912 -0.0003343246 0.021064553 -0.008084502 0.014242546 -0.0025268975 -0.014452579 -0.009822899
-0.025904404 0.0115579525 0.026522582 -0.0003250132 0.01863227 0.03895527 -0.0432386 -0.018955832

conv_layers.0.offset.1 f4 [128]
00000000: 96aa 7f3c a711 993b 0c02 acbc ae7b a03c
00000010: 3067 1d3c a520 84bc 4a8f 1f39 0889 debb
00000020: b999 c83b 4166 3abc 86a0 363c 2191 823c
00000030: e7d3 873c 1c33 19bd ab06 a03c 3345 92bc
00000040: 715d 04bc 1e50 173c 3181 4abc 1608 90bc
00000050: a43f da38 af8e a2bb d460 053c dc1b aa3c
00000060: 517c 8ebc f87a be3c d64b dfbc 17be 6a3c
00000070: 84c7 6dbc 97ba 8ebc 5fed b5b9 c5be 2f3c
00000080: 3d49 8a3b b4bd 1bbc 0c92 0dbd f42a 463c
00000090: c003 d2bc 931b 133c bed0 593b a760 0e3d
000000a0: a5f8 b23b c5ae debb e4c7 71ba 4652 143c
000000b0: 88e6 963b b77e c4bc d119 0cbd 306b 09bd
000000c0: 487c d53c 95aa dbbc 493f e83b 6f41 abbb
000000d0: f314 e13c aee9 163c de5b ddbc 3404 3c3c
000000e0: 1535 0d3c dfe2 b63c 18a9 6abb ae21 21bc
000000f0: 0678 db3c ae32 aa3c 62f8 a73a 29e8 d3bb
00000100: 3a91 83bc 3308 0ebc 95d5 88bb d4c8 7a3c
00000110: 4324 2ebc 4241 0b3c e297 03bd a702 b83c
00000120: e7aa c9bc 72f6 c4bc 8485 b9bc 30eb d8bb
00000130: 2ee2 863c c001 783c bdd4 0d3d c5d0 7a3b
00000140: 3eab 8c3c fe4a 6b3b 411a 423b d72f e73c
00000150: 1269 9d3c 002a ecbc 673f a7bc dd7b 8d3c
00000160: 2a22 363d 36de 69bc 797a 063d d6e7 633b
00000170: 1881 33bc 34d3 fbbb aa46 c2bc 3fa8 eb3b
00000180: d114 b13b 0b99 af3c b15c 3f3c 5d70 3fbc
00000190: 5d3d ba3b 98a9 75ba eafc 9dbb 8405 fdbc
000001a0: 40d7 26b9 84ca 4a3b 07d8 a83c 6a2a 5c3b
000001b0: a1c7 983c 159c cfbb f584 14bc 2412 de3b
000001c0: ef68 9a3b f9a2 893c 15a1 b63b a8f1 983c
000001d0: 4654 bfbb 4af0 2d3b 3b3c f0bb 97fe 3f3c
000001e0: d428 abbc f2c7 493c a82f 91bc 85f2 033d
000001f0: f66b 66bb 7ef8 fb3b f50f 7abc bbe0 bc3a
0.015604636 0.004671294 -0.02099707 0.019590225 0.009607121 -0.016128847 0.00015216801 -0.0067912377
0.006121841 -0.011376918 0.01114667 0.015938343 0.016580535 -0.037402257 0.01953443 -0.017855262
-0.008078919 0.00923541 -0.012359903 -0.01758198 0.00010406904 -0.004960857 0.008140761 0.020765238
-0.017393263 0.023251995 -0.027257841 0.0143275475 -0.0145129 -0.017422957 -0.00034699866 0.010726635
0.0042201565 -0.009505678 -0.03456311 0.012095202 -0.025636554 0.008978742 0.0033235992 0.034760144
0.0054617696 -0.0067957365 -0.00092232064 0.009052819 0.004605118 -0.023986204 -0.034204308 -0.033549488
0.026060238 -0.026814738 0.0070876223 -0.005226306 0.02747581 0.009210987 -0.027021345 0.0114756115
0.008618613 0.022324977 -0.0035806354 -0.00983469 0.02679063 0.02077612 0.0012815113 -0.0064668846
-0.01606046 -0.008668947 -0.0041758516 0.01530667 -0.010628763 0.008499445 -0.03212727 0.022462202
-0.024617625 -0.024043296 -0.022646673 -0.0066198334 0.016465273 0.015137136 0.03462671 0.003827141
0.017171498 0.0035902853 0.00296177 0.028221054 0.01921514 -0.02882862 -0.020415975 0.017270977
0.044466175 -0.014274171 0.032831643 0.0034775636 -0.010956071 -0.0076850895 -0.023715336 0.0071916874
0.005404093 0.021435281 0.011679814 -0.011684504 0.0056835846 -0.000937128 -0.0048214095 -0.03088642
-0.0001591118 0.0030943463 0.020610822 0.0033594617 0.018649878 -0.006335745 -0.009064903 0.006777065
0.004712216 0.016801344 0.0055734017 0.018669918 -0.0058389036 0.0026540929 -0.007331399 0.011718414
-0.020893492 0.012315737 -0.01772292 0.032213707 -0.0035159565 0.0076895347 -0.0152625935 0.0014410237

conv_layers.0.scale.0 f4 [128]
00000000: af9d 803f 281b 803f 1814 823f a859 843f
00000010: 2648 7c3f effc 813f 443e 813f d392 803f
00000020: 4d59 743f b406 753f 25c3 7f3f 9067 813f
00000030: b656 7e3f e62d 803f 563d 803f 82df 7d3f
00000040: 0aa2 793f 278c 7a3f 6ce2 823f d884 823f
00000050: a00f 833f e933 843f 1cdf 753f d09b 763f
00000060: 768d 7d3f ebbc 7c3f 7520 803f 77af 783f
00000070: ef29 833f 2225 833f b905 813f 1dae 7c3f
00000080: c1fe 803f 04f9 7e3f a55d 843f e562 803f
00000090: ddcd 823f 6644 843f 349e 7e3f 6592 7d3f
000000a0: a119 773f 57a2 823f 01f9 873f 6f2b 7d3f
000000b0: 9e04 783f 30c4 823f 2bb7 813f 2253 7e3f
000000c0: 5164 7d3f 9f0b 813f 0f77 773f 7608 813f
000000d0: dc31 813f 13d2 7e3f bcd9 803f 9c75 7c3f
000000e0: fe79 793f 01b6 7c3f 528f 833f 7fdb 863f
000000f0: bdb2 813f 4efb 813f 51e3 823f b89b 7b3f
00000100: d19e 793f c874 7f3f bb92 7b3f 4963 813f
00000110: bd36 7c3f 02b9 7f3f bb6a 7b3f cc2b 823f
00000120: 199c 7a3f 9375 7a3f 8b57 843f acb4 7f3f
00000130: 0aa9 813f 1bb1 7c3f fa14 7f3f c4db 7d3f
00000140: 5637 783f 5a39 733f f173 733f bb0b 7a3f
00000150: f7b3 813f 9165 783f ae7d 7b3f 882e 7e3f
00000160: efd6 833f c4ea 833f 3463 7f3f 0c48 823f
00000170: 9fa8 813f 7971 7d3f 077c 7e3f 570e 7f3f
00000180: 2eda 7a3f d7df 7e3f 89c3 793f 05af 813f
00000190: b602 7f3f 8c72 803f 7d49 7f3f 7a63 803f
000001a0: 1abb 7b3f c075 823f 2f32 7d3f 58f1 7f3f
000001b0: ccef 7f3f f0e4 803f 8230 833f 9b09 7b3f
000001c0: adef 853f 1171 7a3f de07 823f 3bd9 793f
000001d0: 61f8 7a3f d939 7b3f 4319 7e3f 9484 843f
000001e0: 4663 813f 419e 803f 193c 7b3f f81c 7b3f
000001f0: 6ce1 783f 7a1c 813f 7cf6 783f ee8d 803f
1.0048121 1.0008287 1.0162382 1.0339861 0.9854759 1.0155314 1.0097127 1.0044807
0.9544876 0.95713353 0.9990714 1.010973 0.9935106 1.0014007 1.0018718 0.9916917
0.97512877 0.97870106 1.0225348 1.0196791 1.0239143 1.0328342 0.9604356 0.963315
0.9904398 0.98725766 1.0009905 0.9714274 1.0247172 1.0245707 1.0079871 0.98703176
1.0077745 0.9959872 1.0341078 1.003018 1.0219074 1.0333374 0.9946015 0.99051505
0.9652348 1.0205792 1.0622865 0.988944 0.96882045 1.0216122 1.0134023 0.993456
0.98981196 1.0081671 0.96666044 1.0080707 1.0093341 0.995393 1.0066447 0.9861696
0.9745177 0.98715216 1.0278113 1.0535735 1.0132672 1.0154817 1.0225621 0.9828448
0.9750796 0.9978757 0.9827077 1.0108424 0.98521024 0.99891675 0.9820973 1.0169616
0.97894436 0.97835654 1.0339216 0.9988506 1.0129712 0.9870774 0.9964138 0.9916346
0.96959436 0.95009387 0.9509879 0.9767415 1.0133046 0.9702998 0.98238647 0.9928975
1.0299968 1.030602 0.99760747 1.0178237 1.0129584 0.9900127 0.99408 0.99631256
0.97989166 0.995603 0.9756399 1.0131537 0.9961351 1.0034957 0.9972151 1.0030358
0.9833237 1.0192184 0.989047 0.99977636 0.99975276 1.0069866 1.0249178 0.9806153
1.0463768 0.97828776 1.0158651 0.9759709 0.98035246 0.98135144 0.99257296 1.035296
1.0108421 1.0048295 0.98138577 0.9809108 0.97218966 1.0086815 0.97251105 1.0043314

conv_layers.0.scale.1 f4 [128]
00000000: e735 7e3f 6d0a 813f 4e82 823f 3b8c 7e3f
00000010: 0e6b 7e3f 1ee6 813f e5ba 7e3f 9223 7b3f
00000020: 05b5 843f c792 823f d0eb 833f afc5 803f
00000030: c5ed 783f d1f3 733f 2ef8 773f 6c32 743f
00000040: 2744 783f 820e 833f 4dca 823f 74fc 803f
00000050: 7a5e 823f 4b95 803f 3c39 823f 4f9a 7f3f
00000060: 9e10 813f f5d6 813f 789e 813f 93d6 803f
00000070: a435 843f ab0a 813f b574 843f 7ca6 803f
00000080: 3b58 7f3f 2ed7 7b3f 64f8 7a3f 1304 803f
00000090: 51fb 803f 3ed6 793f f1bd 7f3f 9087 7e3f
000000a0: b834 793f 8106 733f 9896 833f f29f 7b3f
000000b0: 7610 803f 713b 7c3f 6f62 813f 3f26 803f
000000c0: 574b 7b3f 8526 843f b6b8 773f 054e 813f
000000d0: 5053 803f af39 7c3f 2c87 7c3f cdbd 783f
000000e0: 4bb9 833f 3d29 793f 75eb 7f3f 203c 773f
000000f0: aa7d 7a3f 6f19 7f3f df0e 833f d155 783f
00000100: f0ef 7d3f b85c 823f 77d7 7c3f a5c9 823f
00000110: 6217 833f 8419 843f 4b30 833f 7cd0 783f
00000120: 8b9a 803f f947 803f fc9c 803f e3ce 803f
00000130: b5b3 723f 8abe 773f 56f7 7f3f 550d 803f
00000140: 6f3e 803f e44b 833f bf79 7f3f 1227 803f
00000150: 7789 803f 8d89 813f d54c 7c3f cdd5 7f3f
00000160: 61d2 7d3f 682c 793f e1b5 823f 9b08 7e3f
00000170: 2f25 803f 85a6 7b3f 1868 843f 265a 793f
00000180: f467 853f edd3 803f 7fd4 783f 4273 803f
00000190: ac42 7b3f 7e71 7e3f 3e91 823f 4479 803f
000001a0: f116 803f 0b6d 813f a249 753f 9d6e 833f
000001b0: 0b6f 853f fd2e 823f 199f 7d3f 7ba0 7a3f
000001c0: 54e6 803f ae62 7f3f 797c 823f 315a 753f
000001d0: 14e0 7f3f 1c28 7b3f 9b5a 823f 13a5 723f
000001e0: d590 7f3f 3611 813f 9e04 823f aaab 7b3f
000001f0: 61d4 7b3f d5b9 823f 1c0c 813f bf14 833f
0.99301 1.0081307 1.0196016 0.99432725 0.993821 1.0148351 0.9950393 0.9810115
1.0367743 1.0201043 1.0306339 1.0060328 0.9723781 0.9529391 0.9686307 0.9538944
0.9697899 1.0238802 1.0217987 1.0077043 1.0185082 1.0045561 1.0173717 0.9984483
1.0083196 1.0143725 1.0126486 1.0065483 1.032887 1.0081381 1.0348116 1.0050807
0.99744004 0.98375213 0.98035264 1.0001243 1.0076696 0.9759253 0.998992 0.994256
0.9734607 0.949318 1.0280333 0.9829093 1.0005023 0.985282 1.0108165 1.0011672
0.98161834 1.0324255 0.9676622 1.0101935 1.0025425 0.9852552 0.98643756 0.97164613
1.0290922 0.9732855 0.99968654 0.9657612 0.97848 0.99648184 1.0238913 0.97005945
0.9919424 1.0184546 0.98766273 1.0217787 1.0241511 1.0320287 1.0249113 0.9719312
1.0047163 1.0021964 1.0047908 1.0063137 0.9480546 0.96775115 0.9998678 1.0004069
1.0019053 1.0257535 0.99795145 1.0011923 1.0041951 1.0120102 0.98554736 0.9993561
0.9914914 0.97333384 1.0211755 0.9923188 1.0011348 0.98300964 1.0344267 0.9740318
1.0422349 1.0064675 0.97199243 1.0035174 0.9814861 0.99391925 1.0200574 1.0037007
1.0007001 1.0111402 0.9581548 1.0268131 1.0424513 1.017059 0.9907089 0.97901124
1.007029 0.9975995 1.0194236 0.95840746 0.9995129 0.9810808 1.01839 0.94783133
0.9983037 1.0083377 1.0157659 0.98308814 0.9837094 1.0212961 1.008182 1.0240706
